model_best.pt (torch, 283322 bytes, 4 tensors)

embedding.weight f4 [662, 64]
0	0x00000000	0.0
1	0x00000000	0.0
2	0x00000000	0.0
3	0x00000000	0.0
4	0x00000000	0.0
5	0x00000000	0.0
6	0x00000000	0.0
7	0x00000000	0.0
8	0x00000000	0.0
9	0x00000000	0.0
10	0x00000000	0.0
11	0x00000000	0.0
12	0x00000000	0.0
13	0x00000000	0.0
14	0x00000000	0.0
15	0x00000000	0.0
16	0x00000000	0.0
17	0x00000000	0.0
18	0x00000000	0.0
19	0x00000000	0.0
20	0x00000000	0.0
21	0x00000000	0.0
22	0x00000000	0.0
23	0x00000000	0.0
24	0x00000000	0.0
25	0x00000000	0.0
26	0x00000000	0.0
27	0x00000000	0.0
28	0x00000000	0.0
29	0x00000000	0.0
30	0x00000000	0.0
31	0x00000000	0.0
32	0x00000000	0.0
33	0x00000000	0.0
34	0x00000000	0.0
35	0x00000000	0.0
36	0x00000000	0.0
37	0x00000000	0.0
38	0x00000000	0.0
39	0x00000000	0.0
40	0x00000000	0.0
41	0x00000000	0.0
42	0x00000000	0.0
43	0x00000000	0.0
44	0x00000000	0.0
45	0x00000000	0.0
46	0x00000000	0.0
47	0x00000000	0.0
48	0x00000000	0.0
49	0x00000000	0.0
50	0x00000000	0.0
51	0x00000000	0.0
52	0x00000000	0.0
53	0x00000000	0.0
54	0x00000000	0.0
55	0x00000000	0.0
56	0x00000000	0.0
57	0x00000000	0.0
58	0x00000000	0.0
59	0x00000000	0.0
60	0x00000000	0.0
61	0x00000000	0.0
62	0x00000000	0.0
63	0x00000000	0.0
64	0x3fc702c4	1.5547719
65	0x3e9bc937	0.30426952
66	0x3ef597df	0.4796743
67	0xbca3a43f	-0.01997578
68	0xbf996422	-1.1983683
69	0x3f8d5f38	1.1044683
70	0x3f7511eb	0.95730466
71	0xbf8104b3	-1.0079559
72	0xbf516a0a	-0.8180243
73	0x40058bf1	2.0866663
74	0xbe508d32	-0.20366362
75	0xbdbedda4	-0.09319618
76	0xbfe86b24	-1.8157697
77	0xbe7d2156	-0.24719748
78	0x3ea2912a	0.31751376
79	0xbe8b8e50	-0.27257013
80	0xbed418d2	-0.41425186
81	0x3e74dd2a	0.23912492
82	0x3e6b4196	0.22974238
83	0x3eee5a0f	0.46553084
84	0x400fa1e3	2.2442558
85	0xbf2c61c6	-0.6733669
86	0xbfa3f1ef	-1.2808207
87	0xbf8b47d1	-1.0881292
88	0xbf93e991	-1.1555654
89	0x3fa33165	1.2749449
90	0xbf188f93	-0.59594077
91	0x3f6e8dcd	0.9318512
92	0xbf9609da	-1.1721756
93	0xbf06b47a	-0.52619135
94	0xbe8c6a61	-0.2742491
95	0x3f059347	0.5217785
96	0x3e58d8b3	0.21176414
97	0xbf090d68	-0.5353608
98	0xbe424116	-0.18970141
99	0x3fecad79	1.849044
100	0xbe82ef8b	-0.25573382
101	0xbf2e5354	-0.680959
102	0xbf02a8ff	-0.5103912
103	0xbf4a6189	-0.79055077
104	0xbeb45a74	-0.3522526
105	0x3d0e7799	0.034782026
106	0xbe5952e8	-0.21223032
107	0x3fe6c7c7	1.8029717
108	0xc002cd57	-2.043783
109	0x3f879d44	1.0594869
110	0x3f9f95e1	1.2467614
111	0x3eac153e	0.33609957
112	0xbfbb1e7d	-1.4618679
113	0xbea0b4e8	-0.3138802
114	0xbf5b61aa	-0.856959
115	0x3f4d0694	0.8008816
116	0x3da5ed88	0.08101946
117	0x3e1599c0	0.14609432
118	0xbe09a97e	-0.13443562
119	0xbfa9b360	-1.3257866
120	0xbe1de623	-0.15419821
121	0xbff33f56	-1.9003704
122	0x3f2d5d92	0.677209
123	0xc01ff775	-2.4994786
124	0x3f63f2f6	0.89042604
125	0x3e99624f	0.29957816
126	0x3fa46350	1.2842808
127	0xbf1b062d	-0.605563
128	0x4003ac97	2.057409
129	0x3e5c0a7b	0.21488373
130	0xbed33c30	-0.41256857
131	0xbd6b5361	-0.057452563
132	0xbeaa2643	-0.33232316
133	0xbe1c4c06	-0.15263376
134	0xbf63e80d	-0.89025956
135	0xbfbbcbb0	-1.4671535
136	0x3f84cabe	1.0374372
137	0xbfa95c74	-1.323134
138	0xbc97c891	-0.018528255
139	0xbecb5a09	-0.3971713
140	0x3e96cef7	0.29454777
141	0x3fc01667	1.5006837
142	0x3e6d0f8c	0.23150462
143	0x3fa108bd	1.2580792
144	0xbf4d63ff	-0.80230707
145	0x3f67e706	0.9058689
146	0xbf904a8f	-1.1272753
147	0xbf9887ff	-1.1916503
148	0xbf805abd	-1.0027691
149	0xbfff4dc2	-1.9945605
150	0x3fb381d4	1.4023995
151	0x3fa1f2de	1.2652242
152	0x3e4db642	0.20089057
153	0xbfd2e822	-1.6477091
154	0xbf7a2f44	-0.9772837
155	0xbfb73807	-1.4313973
156	0x3f8f804e	1.121103
157	0x3ea61dd8	0.32444644
158	0x3fc42ee6	1.5326812
159	0x3f9b0286	1.2110145
160	0x3ea63397	0.32461235
161	0xbee6505b	-0.4498318
162	0x3f984666	1.1896484
163	0x3ef70bd2	0.48251206
164	0x3e9eabd2	0.30990463
165	0x3fc473b6	1.5347812
166	0xbe90f550	-0.2831216
167	0x3ea20059	0.3164089
168	0xbfc511ce	-1.5396059
169	0x3f877555	1.0582682
170	0x3ee0ee5b	0.4393185
171	0xbeb48b12	-0.35262352
172	0x3f74d69a	0.95639956
173	0x3f922273	1.1416763
174	0xbea4ddb0	-0.32200384
175	0xbf887ece	-1.0663698
176	0x3e215b28	0.1575743
177	0x3f939ce6	1.1532257
178	0x3f78255d	0.9693201
179	0xbd2a1c98	-0.041531175
180	0x3e91b108	0.28455377
181	0x3fb35b43	1.4012226
182	0xbe869836	-0.26288003
183	0xbd07ca13	-0.033151697
184	0x3e3e4a65	0.18583067
185	0xbfc50fdc	-1.5395465
186	0x4020a19b	2.5098636
187	0x3ebbdbbb	0.3669108
188	0xbf492a63	-0.785803
189	0x3f912358	1.1338911
190	0xbe1842a9	-0.14869179
191	0x3f52ef5c	0.82396483
192	0x3f040cfc	0.5158231
193	0xbf44dc7e	-0.76898944
194	0xbf2100b4	-0.628917
195	0xbf16a3f3	-0.58843917
196	0x3f8b332e	1.0874994
197	0x3fdeecfb	1.7416071
198	0x3e9c7b94	0.30563033
199	0xbdad424e	-0.08459912
200	0x3edddab4	0.4333092
201	0xbf41406e	-0.75488937
202	0xbfc53dea	-1.540952
203	0x3ef7f0f0	0.48426008
204	0xbe4e6cab	-0.20158641
205	0xbebcac03	-0.36849985
206	0xbfb6a349	-1.4268581
207	0x3f775b63	0.9662382
208	0xbe62729b	-0.22114031
209	0xbea26604	-0.31718457
210	0x3dac1e9e	0.08404277
211	0x3faeceb2	1.3656828
212	0xc003e8a1	-2.0610735
213	0x3f08ce74	0.5344002
214	0x3f9b9c5a	1.215709
215	0x3de7e307	0.11322599
216	0xbf12fb20	-0.57414436
217	0x3fb6c269	1.4278079
218	0xbd39c383	-0.04535247
219	0x3e489b18	0.19590414
220	0xbeb4e76a	-0.35332805
221	0x3fd0a645	1.6300741
222	0x3f8761d4	1.057673
223	0xbfa3585b	-1.2761339
224	0x3ef55dbb	0.47923073
225	0xbf1cb6ab	-0.6121623
226	0xbf1c6f1b	-0.61107033
227	0xbf9c2c0d	-1.2200943
228	0xbe2cad37	-0.16862951
229	0xbf9352cb	-1.1509641
230	0xbf464931	-0.7745543
231	0xbfbc26c9	-1.4699336
232	0xbe5dcb3c	-0.21659559
233	0x3f552400	0.83258057
234	0xbffc5067	-1.9712037
235	0xbf88add2	-1.0678046
236	0x3f84e5e9	1.0382663
237	0x3f1794f9	0.5921169
238	0x3e1e1a27	0.15439664
239	0x3ee7308c	0.45154226
240	0xbe89bb84	-0.26900876
241	0xbe5c01e0	-0.2148509
242	0xbfaf6016	-1.3701198
243	0x3f933ce8	1.1502962
244	0x3f245700	0.6419525
245	0x3ea5e264	0.32399285
246	0xbf47c113	-0.7802898
247	0x3fcba61c	1.5910068
248	0x3f88a890	1.0676441
249	0xbee0ffde	-0.4394521
250	0xc04007ea	-3.000483
251	0xbeebba22	-0.46040446
252	0x40072e98	2.1122189
253	0x3eaafd56	0.33396405
254	0xbe8f28f0	-0.2796092
255	0xbf254c69	-0.6456972

fc1.weight f4 [128, 192]
0	0x3e01cef7	0.12676607
1	0x3e8c6198	0.27418208
2	0x3e93b58a	0.2884944
3	0xbdb8370b	-0.089948736
4	0x3d28acd4	0.041180447
5	0xbddf57ce	-0.10905419
6	0x39bacbaa	0.00035628426
7	0x3c03e05a	0.008049095
8	0xbd48fda5	-0.04907002
9	0xbda48d05	-0.0803471
10	0xbe777d76	-0.24168953
11	0xbdf308ff	-0.1186695
12	0x3e1e03c6	0.15431127
13	0xbd6ad122	-0.05732835
14	0x3d1832c7	0.0371578
15	0x3dd2a224	0.10284832
16	0xbd93be60	-0.072140455
17	0x3cc13860	0.023586452
18	0x3d45c3e2	0.04828251
19	0x3ccca203	0.024979597
20	0xbd852f4f	-0.06503164
21	0xbcff87b3	-0.031192636
22	0x3cabf034	0.020988561
23	0xbe1a6fb9	-0.15081681
24	0xbcfc3fe4	-0.030792184
25	0x3d505612	0.050863333
26	0xbe857869	-0.26068428
27	0x3d77f52c	0.06053655
28	0xbdd26ae5	-0.10274295
29	0xbe1b2386	-0.1515027
30	0xbda9e2ef	-0.08295237
31	0x3d5fc935	0.054635245
32	0x3dbbe9c8	0.091754496
33	0xbd42c1cb	-0.047548097
34	0xbd869e15	-0.065731205
35	0x3cd497f7	0.025951369
36	0x3d13b154	0.036057785
37	0xbe8b18a2	-0.2716723
38	0x3d0447dd	0.032295097
39	0xbcc8ef02	-0.02452803
40	0xbd46fabd	-0.048578966
41	0x3d72cec5	0.059279222
42	0xbd6dd1d7	-0.058061447
43	0xbdf9d14c	-0.12198123
44	0xbdbc0a0f	-0.09181606
45	0xbe35bda8	-0.1774813
46	0xbcbb8300	-0.022889614
47	0xbdc7596c	-0.09733853
48	0x3e2e2524	0.17006356
49	0x3d99014a	0.07470949
50	0x3bec9393	0.0072197407
51	0x3ca39b21	0.019971432
52	0xbc95e02c	-0.01829537
53	0x3e33246c	0.17494363
54	0x3d80d6d1	0.06290973
55	0x3d1c1924	0.038109913
56	0xbe52b643	-0.2057734
57	0x3e3453df	0.1761012
58	0xbcc167c2	-0.023609046
59	0xbe043eb9	-0.12914552
60	0x3d806d67	0.06270867
61	0x3d6a2bde	0.05717074
62	0xbdbca7ac	-0.09211668
63	0x3d6b6cd7	0.057476845
64	0xbe941f43	-0.289301
65	0xbeb089ae	-0.3448004
66	0xbe8e4ba0	-0.27792072
67	0x3e24913b	0.16071026
68	0xbe4d3d37	-0.20042883
69	0x3e8b29aa	0.27180225
70	0xbe5b23e7	-0.21400414
71	0x3d232b33	0.03983612
72	0xbbd51c12	-0.0065035904
73	0x3e23973e	0.15975663
74	0x3eaa187a	0.332218
75	0x3cb6c1fe	0.0223093
76	0xbda0a526	-0.078439996
77	0x3e49a8d3	0.19693308
78	0xbd0989ab	-0.033578556
79	0xbe3145ab	-0.17311732
80	0x3e8564e1	0.26053527
81	0x3e3bbcbb	0.18333714
82	0xbe6080f1	-0.21924187
83	0xbcad83f7	-0.02118109
84	0x3d9f8695	0.07789341
85	0x3e13f198	0.1444763
86	0xbe522fc3	-0.20526032
87	0x3dc8fed6	0.09814231
88	0x3e98e6a5	0.29863468
89	0x3e2c8d5b	0.16850798
90	0x3e803fbc	0.25048625
91	0xbd22400a	-0.039611854
92	0x3cc3e3bf	0.023912309
93	0xbd9f70ad	-0.07785163
94	0xbdf889c9	-0.121356554
95	0xbe68d42f	-0.22737192
96	0xbb013001	-0.001971245
97	0x3d83c8d6	0.06434791
98	0x3e5c4a45	0.21512707
99	0xbdc1572f	-0.09440457
100	0xbe372f4f	-0.1788914
101	0x3e5821db	0.21106665
102	0xbd1aa285	-0.037752647
103	0x3e051d4d	0.12999459
104	0x3e152f93	0.1456893
105	0x3cf933a6	0.030420136
106	0xbd07d9ee	-0.03316682
107	0x3eb719d0	0.3576188
108	0xbc286d9a	-0.010280037
109	0x3ca1fecb	0.019774815
110	0xbde8dd9c	-0.11370394
111	0xbddc17cd	-0.10746727
112	0xbe849840	-0.25897408
113	0x3e215fc3	0.15759186
114	0xbe0ba257	-0.13636146
115	0xbe7481b8	-0.23877609
116	0x3d8ef3fd	0.06980131
117	0xbeb5388a	-0.35394698
118	0xbe856d69	-0.26060036
119	0x3d1d0ffb	0.03834532
120	0x3d0e54c0	0.034748793
121	0xbe3f666d	-0.18691416
122	0x3d0e969f	0.034811612
123	0x3da6aac0	0.08138037
124	0xbe52eefe	-0.20598981
125	0xbcc48e45	-0.02399362
126	0xbe3d0b4a	-0.18461338
127	0x3d592bad	0.053020168
128	0xbe3517c2	-0.17684844
129	0x3d9302b7	0.07178252
130	0x3e43c36d	0.19117518
131	0x3bf1c589	0.0073782844
132	0x3e140456	0.14454779
133	0xbc389f41	-0.011268438
134	0xbd6b395c	-0.05742775
135	0xbdaf0d99	-0.085475154
136	0xbbc76c1d	-0.006085886
137	0x3d54414d	0.05182009
138	0xbd4b48ea	-0.049630083
139	0xbdcb0c6c	-0.09914479
140	0x3e00ed8e	0.1259062
141	0xbe4f451d	-0.20241208
142	0x3c9a56fd	0.018840307
143	0xbd524a42	-0.05134035
144	0x3d5036c5	0.050833482
145	0xbda12c71	-0.07869805
146	0xbcd8c2b0	-0.026460022
147	0xbd84ca65	-0.06483916
148	0x3d8faa13	0.07014861
149	0xbcf0388c	-0.029323839
150	0xbcf879b7	-0.030331476
151	0x3ac09449	0.001469263
152	0x3abaf60b	0.0014264
153	0xbe027dff	-0.12743376
154	0xbe2054cb	-0.15657346
155	0xbd1eeba5	-0.038798947
156	0xbbf67130	-0.007520817
157	0x3bcefef6	0.006317015
158	0x3ce87ff7	0.02838133
159	0x3c0fad00	0.008769274
160	0xbd11edfa	-0.035627343
161	0x3e00c709	0.12575926
162	0x3d189085	0.0372472
163	0x3dab9e4b	0.08379801
164	0xbdefd1e5	-0.11709956
165	0x3c0868dc	0.008325782
166	0xbd124021	-0.03570569
167	0xbc481fe9	-0.012214639
168	0x3ce31881	0.027721645
169	0x3c8904ea	0.016725976
170	0xbbfc110d	-0.0076924623
171	0xba04bc87	-0.0005063493
172	0xbc98b5bf	-0.01864135
173	0x3cf85413	0.030313527
174	0xbd633cfa	-0.055478074
175	0x3d009452	0.03139145
176	0xbe0e7cca	-0.13914791
177	0x3ddcbb60	0.107779264
178	0x3cc7b02a	0.024375994
179	0xbd65a358	-0.05606398
180	0xbd1a8325	-0.037722725
181	0x3df7aff2	0.12094106
182	0xbd853abd	-0.06505344
183	0xbdff374f	-0.12461721
184	0x3d848508	0.06470686
185	0x3d825fbb	0.063659154
186	0x3cc32f81	0.023826363
187	0xbcb6ce5b	-0.022315195
188	0x3dc32edf	0.09530424
189	0xbdfe5a5e	-0.1241958
190	0xbe28ca45	-0.1648341
191	0x3a41e72b	0.00073968124
192	0xbb3806af	-0.0028080156
193	0xbd811a9f	-0.06303906
194	0x3cc3d9db	0.023907593
195	0xbd11c6d0	-0.035589993
196	0x3cf4108d	0.029793048
197	0x3d3f7b2e	0.046748333
198	0xbd88b48f	-0.06675064
199	0x3be78d01	0.0070663695
200	0x3c644a53	0.013933736
201	0xbd6b8b45	-0.057505865
202	0x3d0b31cb	0.033983033
203	0xbd37de4b	-0.04488973
204	0x3d70fe33	0.058836173
205	0x3d538541	0.051640753
206	0x3c31617c	0.010826465
207	0xbd72ac26	-0.059246205
208	0xbd3a2677	-0.04544684
209	0xbd4a5cd3	-0.04940493
210	0x3bd023f1	0.006351941
211	0xbd839fcb	-0.064269625
212	0xbcca5dd6	-0.024702948
213	0x3cbae08b	0.022812149
214	0x3d2370fe	0.03990268
215	0xbcf5d96f	-0.030010907
216	0x3d6529a9	0.055947933
217	0xbd836213	-0.064151905
218	0x3cc87ad0	0.024472624
219	0xbd0d755d	-0.034535754
220	0xbd8e3e91	-0.06945527
221	0x3a06ed82	0.0005147086
222	0x3b616edc	0.0034398353
223	0x3caf82df	0.021424709
224	0x3cb67e42	0.022277001
225	0xbd0f305e	-0.034958236
226	0x3d628090	0.055298388
227	0x3d853ebd	0.06506107
228	0xbc96a3dc	-0.018388681
229	0xbd6661f4	-0.05624576
230	0xbd6d8c16	-0.057994924
231	0x3bffd64a	0.0078075277
232	0x3ca588cb	0.02020683
233	0x3d49c0e7	0.04925623
234	0xbc870452	-0.016481552
235	0xbd4cb386	-0.049975894
236	0x3d429276	0.047502957
237	0xbd057eae	-0.032591514
238	0xbd62cda5	-0.0553719
239	0x3cbb4a28	0.022862509
240	0xbd05969b	-0.03261433
241	0xbc662c48	-0.014048643
242	0x3d5be760	0.053687453
243	0x3c636c12	0.013880746
244	0xbcd355bb	-0.025797715
245	0xbd8d9c1b	-0.069145404
246	0x3d1e5ef3	0.03866477
247	0x3d070428	0.032962948
248	0xbd4dfaf6	-0.050288163
249	0xbd145cae	-0.0362212
250	0x3cb77c20	0.022398055
251	0x3d01bb68	0.031672865
252	0xbce5e272	-0.02806208
253	0x3cda387c	0.026638262
254	0xbd754a9d	-0.05988561
255	0xbab247df	-0.0013601742

fc1.bias f4 [128]
0	0xbddcbf4b	-0.10778674
1	0x3cde6c0b	0.027151128
2	0x3db46318	0.08807963
3	0xbd248d48	-0.0401738
4	0x3ddcaad0	0.107747674
5	0xbe24a4de	-0.16078517
6	0x3e0cce3a	0.13750544
7	0x3c8be994	0.017079152
8	0xbc5d2e56	-0.013499817
9	0x3dc0ca5d	0.09413598
10	0xbe02fec1	-0.12792493
11	0xbd006c39	-0.03135321
12	0xbc8d4c90	-0.017248422
13	0xbb743b41	-0.0037266763
14	0xbdc40301	-0.095708854
15	0x3d92f81e	0.07176231
16	0x3cc77d87	0.024351848
17	0x3c031150	0.007999733
18	0x3d41a5de	0.047277324
19	0x3da303db	0.0795972
20	0xbcdfd5cb	-0.027323624
21	0x3df582aa	0.11987813
22	0x3c88655d	0.016649896
23	0xbde5b53b	-0.112162076
24	0x3bfbe117	0.007686745
25	0x3c573c17	0.013136885
26	0x3decd558	0.115641296
27	0xbdd3f7f7	-0.1035003
28	0x3d0287ba	0.03186772
29	0xbd25230c	-0.040316626
30	0xbd8d17c8	-0.068893015
31	0x3df65558	0.12027997
32	0xbc844b4b	-0.016149184
33	0xbc5859e1	-0.013205023
34	0xbd5ad52f	-0.053425964
35	0xbc54f89b	-0.012998725
36	0x3e29d4f7	0.16585146
37	0xbd89376a	-0.067000225
38	0x3bd0d3f3	0.0063729226
39	0xbdcff65d	-0.10154412
40	0xbdca3f37	-0.098753385
41	0xbe06a56c	-0.13149041
42	0xbd3c91c1	-0.04603744
43	0x3d214d2c	0.039380237
44	0x3dd11118	0.102083385
45	0xbc4e9eba	-0.012611086
46	0xbd64f864	-0.055900946
47	0x3d89786d	0.067124225
48	0x3b9d9fbd	0.004810302
49	0xbdabdcc7	-0.08391719
50	0xbdf425ed	-0.11921296
51	0xbd16dd3c	-0.03683208
52	0x3e0f7ff5	0.14013655
53	0xbd993d06	-0.074823424
54	0x3d7ef86b	0.06224863
55	0xbb7bf76a	-0.003844703
56	0xbc9834d8	-0.018579885
57	0xbdd66b4a	-0.104696825
58	0x3a236652	0.00062332035
59	0x3be09fb8	0.0068549775
60	0x3d571960	0.052514434
61	0xbd552fc4	-0.052047506
62	0xbc9ec4c7	-0.01938094
63	0xbd50d842	-0.05098749
64	0x3dd9ff36	0.10644381
65	0x3d070485	0.032963295
66	0x3d9a5bf1	0.07537068
67	0x3bd00aab	0.006348928
68	0xbd12ebb9	-0.035869334
69	0xbdaa9b09	-0.08330352
70	0x3cf705df	0.030154167
71	0xbda9861d	-0.08277533
72	0xbdab5eb5	-0.08367673
73	0xbd09bcc8	-0.0336273
74	0xbb210cab	-0.00245742
75	0xbd99249c	-0.07477686
76	0xbdde31c3	-0.10849335
77	0xbc67ffd6	-0.014160117
78	0x3e09b101	0.13446428
79	0x3d562458	0.052280754
80	0xbe16ec5c	-0.14738601
81	0xbd8eb401	-0.06967927
82	0x3e152db5	0.14568217
83	0xbca3429f	-0.019929228
84	0xbc08fa6a	-0.008360485
85	0x3d4fa6ef	0.05069631
86	0xbbf45a98	-0.0074570887
87	0xbd47c9a3	-0.04877628
88	0xbd1ac528	-0.03778568
89	0xbc37ad93	-0.011210817
90	0x3d1cf60f	0.038320597
91	0xbdacc1fc	-0.08435437
92	0x3db5c6d3	0.08875813
93	0xbc4d9ac7	-0.012549109
94	0x3c6de0ea	0.014518956
95	0x3cea466e	0.028598037
96	0x3e099b6e	0.13438198
97	0xbd0bef62	-0.03416384
98	0xbdd206a8	-0.10255176
99	0xbd248f7d	-0.040175904
100	0x3bbd32f3	0.005773896
101	0xbde6b4b3	-0.112649344
102	0xbd92f59f	-0.07175755
103	0xbd22383c	-0.03960441
104	0xbde181ae	-0.110110626
105	0x3dbc54b6	0.09195845
106	0xbcdb42b5	-0.026765207
107	0x3ce28b1d	0.027654225
108	0xbdc3d040	-0.09561205
109	0x3dcc5bd4	0.09978452
110	0xbd2d2f19	-0.042281244
111	0xbc93d768	-0.01804705
112	0x3d9169a2	0.07100226
113	0xbde5a368	-0.11212808
114	0xbd817478	-0.06321043
115	0xbd9811a7	-0.07425242
116	0x3d96518e	0.07339774
117	0xbd1b9d63	-0.037991893
118	0x3c965bce	0.018354323
119	0xbb0e4aa4	-0.002171197
120	0x3e12625e	0.14295337
121	0x3e2cf193	0.16889028
122	0xbdbb49c3	-0.09144928
123	0xbc846e6c	-0.016165935
124	0xbd9e370d	-0.07725344
125	0x3dd635d7	0.10459488
126	0x3cb68f72	0.022285197
127	0x3e0df359	0.13862361

fc2.weight f4 [1, 128]
0	0xbef0c6d4	-0.47026694
1	0x3c1c42a2	0.009537371
2	0x3ea371b3	0.31922683
3	0xbe18af4f	-0.14910625
4	0x3f128650	0.57236195
5	0xbf0e9ed6	-0.55711114
6	0x3eafa8d6	0.343085
7	0x3eb3acc4	0.35092747
8	0x3ea03855	0.31292978
9	0x3ea29348	0.31752992
10	0xbd8ba3fe	-0.068183884
11	0x3e881cf3	0.26584587
12	0x3e93edd3	0.28892383
13	0xbe72e907	-0.23721705
14	0xbe7386e8	-0.23781931
15	0x3f0666fc	0.5250089
16	0x3f16c25d	0.58890325
17	0x3ee5d225	0.4488689
18	0x3ebb8d05	0.36631027
19	0x3e984f3e	0.29747957
20	0xbd8fd10e	-0.07022296
21	0x3ebafdc4	0.36521733
22	0x3f2fda87	0.6869282
23	0xbe67c9ea	-0.22635618
24	0xbd5c4c3b	-0.053783637
25	0x3f22c9f3	0.635894
26	0x3eb7add4	0.35874808
27	0xbed20ecc	-0.41026914
28	0xbd8d5dac	-0.06902632
29	0xbe8c500a	-0.27404815
30	0xbd67d065	-0.056595225
31	0x3f218a9c	0.63102126
32	0xbe3a9763	-0.18221812
33	0xbd989430	-0.074501395
34	0xbddb6909	-0.10713393
35	0xbd28ebda	-0.04124055
36	0x3e97e9bc	0.29670513
37	0xbd89f0d1	-0.06735385
38	0xbdf422eb	-0.119207226
39	0xbe00aa2d	-0.12564917
40	0xbdc1184b	-0.09428462
41	0xbf089c28	-0.53363276
42	0xbdbe7e5c	-0.09301445
43	0x3f4b3909	0.79383904
44	0x3eb68bc2	0.35653502
45	0x3ec6bc13	0.38815364
46	0xbf194bc6	-0.59881246
47	0x3f4472cd	0.7673767
48	0x3e9ca04b	0.30591044
49	0xbdc2e416	-0.0951616
50	0xbf35d699	-0.71030575
51	0xbdd79393	-0.105261944
52	0x3efee492	0.4978376
53	0xbe987d81	-0.29783252
54	0x3f0fb3a7	0.561335
55	0x3eeaace7	0.4583504
56	0x3f014350	0.50493336
57	0xbd884bf5	-0.06655113
58	0xbdbb730f	-0.09152805
59	0xbc72f44c	-0.014828753
60	0x3e077d6d	0.1323144
61	0x3ef3b47e	0.47598642
62	0x3c58481a	0.013200784
63	0xbe1943e5	-0.14967306
64	0x3f08db76	0.5345987
65	0x3ea13db6	0.31492394
66	0x3efe374b	0.4965156
67	0x3ed81ba2	0.42208582
68	0x3edca4ea	0.4309457
69	0xbdf57755	-0.119856514
70	0x3eb54e7b	0.35411438
71	0xbb426011	-0.002965931
72	0xbdd4c893	-0.10389819
73	0xbde12139	-0.10992665
74	0xbdbfc427	-0.09363585
75	0xbdf936f1	-0.12168682
76	0xbe5f0b53	-0.21781664
77	0xbdbae30d	-0.09125338
78	0x3ebd4a10	0.36970568
79	0x3eb362bb	0.35036263
80	0xbeb36bfa	-0.35043317
81	0xbdf6d2da	-0.120519355
82	0x3edaf4c4	0.42764866
83	0xbf01542b	-0.50519055
84	0xbe595f53	-0.2122777
85	0x3ecd27fd	0.4006957
86	0x3efdcbc2	0.49569517
87	0xbedf0759	-0.43560293
88	0xba867068	-0.0010256888
89	0xbdce952f	-0.10087048
90	0x3ef5e6ee	0.48027748
91	0x3c4727cc	0.012155484
92	0x3ed68f7b	0.41906342
93	0x3e83e64a	0.25761634
94	0x3ed4d48d	0.41568413
95	0xbdafd365	-0.08585242
96	0x3ea05dc6	0.31321543
97	0xbf0df59b	-0.5545289
98	0xbde0a1ba	-0.10968347
99	0xbf130b28	-0.574389
100	0x3ee5f05d	0.44909945
101	0xbe095c09	-0.13414015
102	0xbe878c4c	-0.26474226
103	0xbcb5a2ad	-0.022172296
104	0xbe38579e	-0.18002173
105	0x3f0de3c3	0.5542566
106	0x3eed8b85	0.46395507
107	0x3ef52f31	0.47887567
108	0xbd50ac31	-0.050945465
109	0x3ea4f28a	0.32216293
110	0xbf18a8ce	-0.59632576
111	0xbdae501d	-0.08511374
112	0x3eb9f3bd	0.3631877
113	0xbdae757c	-0.08518502
114	0xbead036e	-0.3379168
115	0xbeec5359	-0.4615734
116	0x3e84c89c	0.25934303
117	0x3f186848	0.5953412
118	0x3eb0f570	0.34562254
119	0xbda1cc24	-0.07900265
120	0x3ee1e02a	0.44116336
121	0x3ea4bded	0.32176152
122	0xbdbc4f7b	-0.09194847
123	0x3f0e6ff6	0.5563959
124	0xbf07ee9d	-0.5309847
125	0x3eb30491	0.3496442
126	0xbda2938b	-0.07938298
127	0x3eb0a254	0.34498847
